…
ps://github.com/fla\n(EBFTPolicyModelActor pid=94355) The fast path is not available because one of the required library is not installed. Falling back to torch implementation. To install follow https://github.com/fla-org/flash-linear-attention#installation and https://github.com/Dao-AILab/causal-conv1d\nLoading weights: 100%|██████████| 320/320 [00:00<00:00, 12418.71it/s]\n(EBFTPolicyModelActor pid=93726) Actor(\n(EBFTPolicyModelActor pid=93726)   (model): Qwen3_5ForCausalLM(\n(EBFTPolicyModelActor pid=93726)     (model): Qwen3_5TextModel(\n(EBFTPolicyModelActor pid=93726)       (embed_tokens): Embedding(248320, 2048)\n(EBFTPolicyModelActor pid=93726)       (layers): ModuleList(\n(EBFTPolicyModelActor pid=93726)         (0-2): 3 x Qwen3_5DecoderLayer(\n(EBFTPolicyModelActor pid=93726)           (linear_attn): Qwen3_5GatedDeltaNet(\n(EBFTPolicyModelActor pid=93726)             (act): SiLUActivation()\n(EBFTPolicyModelActor pid=93726)             (conv1d): Conv1d(6144, 6144, kernel_size=(4,), stride\n(EBFTPolicyModelActor pid=93726)             (conv1d): Conv1d(6144, 6144, kernel_size=(4,), stride=(1,), padding=(3,), groups=6144, bias=False)\n(EBFTPolicyModelActor pid=93726)             (norm): Qwen3_5RMSNormGated()\n(EBFTPolicyModelActor pid=93726)             (out_proj): Linear(in_features=2048, out_features=204\n(EBFTPolicyModelActor pid=93726)             (out_proj): Linear(in_features=2048, out_features=2048, bias=False)\n(EBFTPolicyModelActor pid=93726)             (in_proj_qkv): Linear(in_features=2048, out_features=\n(EBFTPolicyModelActor pid=93726)             (in_proj_qkv): Linear(in_features=2048, out_features=6144, bias=False)\n(EBFTPolicyModelActor pid=93726)             (in_proj_z): Linear(in_features=2048, out_features=20\n(EBFTPolicyModelActor pid=93726)             (in_proj_z): Linear(in_features=2048, out_features=2048, bias=False)\n(EBFTPolicyModelActor pid=93726)             (in_proj_b): Linear(in_features=2048, out_features=16\n(EBFTPolicyModelActor pid=93726)             (in_proj_b): Linear(in_features=2048, out_features=16, bias=False)\n(EBFTPolicyModelActor pid=93726)             (in_proj_a): Linear(in_features=2048, out_features=16\n(EBFTPolicyModelActor pid=93726)             (in_proj_a): Linear(in_features=2048, out_features=16, bias=False)\n(EBFTPolicyModelActor pid=93726)           )\n(EBFTPolicyModelActor pid=93726)           (mlp): Qwen3_5MLP(\n(EBFTPolicyModelActor pid=93726)             (gate_proj): Linear(in_features=2048, out_features=61\n(EBFTPolicyModelActor pid=93726)             (gate_proj): Linear(in_features=2048, out_features=6144, bias=False)\n(EBFTPolicyModelActor pid=93726)             (up_proj): Linear(in_features=2048, out_features=6144\n(EBFTPolicyModelActor pid=93726)             (up_proj): Linear(in_features=2048, out_features=6144, bias=False)\n(EBFTPolicyModelActor pid=93726)             (down_proj): Linear(in_features=6144, out_features=20\n(EBFTPolicyModelActor pid=93726)             (down_proj): Linear(in_features=6144, out_features=2048, bias=False)\n(EBFTPolicyModelActor pid=93726)             (act_fn): SiLUActivation()\n(EBFTPolicyModelActor pid=93726)           )\n(EBFTPolicyModelActor pid=93726)           (input_layernorm): Qwen3_5RMSNorm((2048,), eps=1e-06)\n(EBFTPolicyModelActor pid=93726)           (post_attention_layernorm): Qwen3_5RMSNorm((2048,), eps\n(EBFTPolicyModelActor pid=93726)           (post_attention_layernorm): Qwen3_5RMSNorm((2048,), eps=1e-06)\n(EBFTPolicyModelActor pid=93726)         )\n(EBFTPolicyModelActor pid=93726)         (3): Qwen3_5DecoderLayer(\n(EBFTPolicyModelActor pid=93726)           (self_attn): Qwen3_5Attention(\n(EBFTPolicyModelActor pid=93726)             (q_proj): Linear(in_features=2048, out_features=4096,\n(EBFTPolicyModelActor pid=93726)             (q_proj): Linear(in_features=2048, out_features=4096, bias=False)\n(EBFTPolicyModelActor pid=93726)             (k_proj): Linear(in_features=2048, out_features=512, \n(EBFTPolicyModelActor pid=93726)             (k_proj): Linear(in_features=2048, out_features=512, bias=False)\n(EBFTPolicyModelActor pid=93726)             (v_proj): Linear(in_features=2048, out_features=512, \n(EBFTPolicyModelActor pid=93726)             (v_proj): Linear(in_features=2048, out_features=512, bias=False)\n(EBFTPolicyModelActor pid=93726)             (o_proj): Linear(in_features=2048, out_features=2048,\n(EBFTPolicyModelActor pid=93726)             (o_proj): Linear(in_features=2048, out_features=2048, bias=False)\n(EBFTPolicyModelActor pid=93726)             (q_norm): Qwen3_5RMSNorm((256,), eps=1e-06)\n(EBFTPolicyModelActor pid=93726)             (k_norm): Qwen3_5RMSNorm((256,), eps=1e-06)\n(EBFTPolicyModelActor pid=93726)           )\n(EBFTPolicyModelActor pid=93726)           (mlp): Qwen3_5MLP(\n(EBFTPolicyModelActor pid=93726)             (gate_proj): Linear(in_features=2048, out_features=61\n(EBFTPolicyModelActor pid=93726)             (gate_proj): Linear(in_features=2048, out_features=6144, bias=False)\n(EBFTPolicyModelActor pid=93726)             (up_proj): Linear(in_features=2048, out_features=6144\n(EBFTPolicyModelActor pid=93726)             (up_proj): Linear(in_features=2048, out_features=6144, bias=False)\n(EBFTPolicyModelActor pid=93726)             (down_proj): Linear(in_features=6144, out_features=20\n(EBFTPolicyModelActor pid=93726)             (down_proj): Linear(in_features=6144, out_features=2048, bias=False)\n(EBFTPolicyModelActor pid=93726)             (act_fn): SiLUActivation()\n(EBFTPolicyModelActor pid=93726)           )\n(EBFTPolicyModelActor pid=93726)           (input_layernorm): Qwen3_5RMSNorm((2048,), eps=1e-06)\n(EBFTPolicyModelActor pid=93726)           (post_attention_layernorm): Qwen3_5RMSNorm((2048,), eps\n(EBFTPolicyModelActor pid=93726)           (post_attention_layernorm): Qwen3_5RMSNorm((2048,), eps=1e-06)\n(EBFTPolicyModelActor pid=93726)         )\n(EBFTPolicyModelActor pid=93726)         (4-6): 3 x Qwen3_5DecoderLayer(\n(EBFTPolicyModelActor pid=93726)           (linear_attn): Qwen3_5GatedDeltaNet(\n(EBFTPolicyModelActor pid=93726)             (act): SiLUActivation()\n(EBFTPolicyModelActor pid=93726)             (conv1d): Conv1d(6144, 6144, kernel_size=(4,), stride\n(EBFTPolicyModelActor pid=93726)             (conv1d): Conv1d(6144, 6144, kernel_size=(4,), stride=(1,), padding=(3,), groups=6144, bias=False)\n(EBFTPolicyModelActor pid=93726)             (norm): Qwen3_5RMSNormGated()\n(EBFTPolicyModelActor pid=93726)             (out_proj): Linear(in_features=2048, out_features=204\n(EBFTPolicyModelActor pid=93726)             (out_proj): Linear(in_features=2048, out_features=2048, bias=False)\n(EBFTPolicyModelActor pid=93726)             (in_proj_qkv): Linear(in_features=2048, out_features=\n(EBFTPolicyModelActor pid=93726)             (in_proj_qkv): Linear(in_features=2048, out_features=6144, bias=False)\n(EBFTPolicyModelActor pid=93726)             (in_proj_z): Linear(in_features=2048, out_features=20\n(EBFTPolicyModelActor pid=93726)             (in_proj_z): Linear(in_features=2048, out_features=2048, bias=False)\n(EBFTPolicyModelActor pid=93726)             (in_proj_b): Linear(in_features=2048, out_features=16\n(EBFTPolicyModelActor pid=93726)             (in_proj_b): Linear(in_features=2048, out_features=16, bias=False)\n(EBFTPolicyModelActor pid=93726)             (in_proj_a): Linear(in_features=2048, out_features=16\n(EBFTPolicyModelActor pid=93726)             (in_proj_a): Linear(in_features=2048, out_features=16, bias=False)\n(EBFTPolicyModelActor pid=93726)           )\n(EBFTPolicyModelActor pid=93726)           (mlp): Qwen3_5MLP(\n(EBFTPolicyModelActor pid=93726)             (gate_proj): Linear(in_features=2048, out_features=61\n(EBFTPolicyModelActor pid=93726)             (gate_proj): Linear(in_features=2048, out_features=6144, bias=False)\n(EBFTPolicyModelActor pid=93726)             (up_proj): Linear(in_features=2048, out_features=6144\n(EBFTPolicyModelActor pid=93726)             (up_proj): Linear(in_features=2048, out_features=6144, bias=False)\n(EBFTPolicyModelActor pid=93726)             (down_proj): Linear(in_features=6144, out_features=20\n(EBFTPolicyModelActor pid=93726)             (down_proj): Linear(in_features=6144, out_features=2048, bias=False)\n(EBFTPolicyModelActor pid=93726)             (act_fn): SiLUActivation()\n(EBFTPolicyModelActor pid=93726)           )\n(EBFTPolicyModelActor pid=93726)           (input_layernorm): Qwen3_5RMSNorm((2048,), eps=1e-06)\n(EBFTPolicyModelActor pid=93726)           (post_attention_layernorm): Qwen3_5RMSNorm((2048,), eps\n(EBFTPolicyModelActor pid=93726)           (post_attention_layernorm): Qwen3_5RMSNorm((2048,), eps=1e-06)\n(EBFTPolicyModelActor pid=93726)         )\n(EBFTPolicyModelActor pid=93726)         (7): Qwen3_5DecoderLayer(\n(EBFTPolicyModelActor pid=93726)           (self_attn): Qwen3_5Attention(\n(EBFTPolicyModelActor pid=93726)             (q_proj): Linear(in_features=2048, out_features=4096,\n(EBFTPolicyModelActor pid=93726)             (q_proj): Linear(in_features=2048, out_features=4096, bias=False)\n(EBFTPolicyModelActor pid=93726)             (k_proj): Linear(in_features=2048, out_features=512, \n(EBFTPolicyModelActor pid=93726)             (k_proj): Linear(in_features=2048, out_features=512, bias=False)\n(EBFTPolicyModelActor pid=93726)             (v_proj): Linear(in_features=2048, out_features=512, \n(EBFTPolicyModelActor pid=93726)             (v_proj): Linear(in_features=2048, out_features=512, bias=False)\n(EBFTPolicyModelActor pid=93726)             (o_proj): Linear(in_features=2048, out_features=2048,\n(EBFTPolicyModelActor pid=93726)             (o_proj): Linear(in_features=2048, out_features=2048, bias=False)\n(EBFTPolicyModelActor pid=93726)             (q_norm): Qwen3_5RMSNorm((256,), eps=1e-06)\n(EBFTPolicyModelActor pid=93726)             (k_norm): Qwen3_5RMSNorm((256,), eps=1e-06)\n(EBFTPolicyModelActor pid=93726)           )\n(EBFTPolicyModelActor pid=93726)           (mlp): Qwen3_5MLP(\n(EBFTPolicyModelActor pid=93726)             (gate_proj): Linear(in_features=2048, out_features=61\n(EBFTPolicyModelActor pid=93726)             (gate_proj): Linear(in_features=2048, out_features=6144, bias=False)\n(EBFTPolicyModelActor pid=93726)             (up_proj): Linear(in_features=2048, out_features=6144\n(EBFTPolicyModelActor pid=93726)             (up_proj): Linear(in_features=2048, out_features=6144, bias=False)\n(EBFTPolicyModelActor pid=93726)             (down_proj): Linear(in_features=6144, out_features=20\n(EBFTPolicyModelActor pid=93726)             (down_proj): Linear(in_features=6144, out_features=2048, bias=False)\n(EBFTPolicyModelActor pid=93726)             (act_fn): SiLUActivation()\n(EBFTPolicyModelActor pid=93726)           )\n(EBFTPolicyModelActor pid=93726)           (input_layernorm): Qwen3_5RMSNorm((2048,), eps=1e-06)\n(EBFTPolicyModelActor pid=93726)           (post_attention_layernorm): Qwen3_5RMSNorm((2048,), eps\n(EBFTPolicyModelActor pid=93726)           (post_attention_layernorm): Qwen3_5RMSNorm((2048,), eps=1e-06)\n(EBFTPolicyModelActor pid=93726)         )\n(EBFTPolicyModelActor pid=93726)         (8-10): 3 x Qwen3_5DecoderLayer(\n(EBFTPolicyModelActor pid=93726)           (linear_attn): Qwen3_5GatedDeltaNet(\n(EBFTPolicyModelActor pid=93726)             (act): SiLUActivation()\n(EBFTPolicyModelActor pid=93726)             (conv1d): Conv1d(6144, 6144, kernel_size=(4,), stride\n(EBFTPolicyModelActor pid=93726)             (conv1d): Conv1d(6144, 6144, kernel_size=(4,), stride=(1,), padding=(3,), groups=6144, bias=False)\n(EBFTPolicyModelActor pid=93726)             (norm): Qwen3_5RMSNormGated()\n(EBFTPolicyModelActor pid=93726)             (out_proj): Linear(in_features=2048, out_features=204\n(EBFTPolicyModelActor pid=93726)             (out_proj): Linear(in_features=2048, out_features=2048, bias=False)\n(EBFTPolicyModelActor pid=93726)             (in_proj_qkv): Linear(in_features=2048, out_features=\n(EBFTPolicyModelActor pid=93726)             (in_proj_qkv): Linear(in_features=2048, out_features=6144, bias=False)\n(EBFTPolicyModelActor pid=93726)             (in_proj_z): Linear(in_features=2048, out_features=20\n(EBFTPolicyModelActor pid=93726)             (in_proj_z): Linear(in_features=2048, out_features=2048, bias=False)\n(EBFTPolicyModelActor pid=93726)             (in_proj_b): Linear(in_features=2048, out_features=16\n(EBFTPolicyModelActor pid=93726)             (in_proj_b): Linear(in_features=2048, out_features=16, bias=False)\n(EBFTPolicyModelActor pid=93726)             (in_proj_a): Linear(in_features=2048, out_features=16\n(EBFTPolicyModelActor pid=93726)             (in_proj_a): Linear(in_features=2048, out_features=16, bias=False)\n(EBFTPolicyModelActor pid=93726)           )\n(EBFTPolicyModelActor pid=93726)           (mlp): Qwen3_5MLP(\n(EBFTPolicyModelActor pid=93726)             (gate_proj): Linear(in_features=2048, out_features=61\n(EBFTPolicyModelActor pid=93726)             (gate_proj): Linear(in_features=2048, out_features=6144, bias=False)\n(EBFTPolicyModelActor pid=93726)             (up_proj): Linear(in_features=2048, out_features=6144\n(EBFTPolicyModelActor pid=93726)             (up_proj): Linear(in_features=2048, out_features=6144, bias=False)\n(EBFTPolicyModelActor pid=93726)             (down_proj): Linear(in_features=6144, out_features=20\n(EBFTPolicyModelActor pid=93726)             (down_proj): Linear(in_features=6144, out_features=2048, bias=False)\n(EBFTPolicyModelActor pid=93726)             (act_fn): SiLUActivation()\n(EBFTPolicyModelActor pid=93726)           )\n(EBFTPolicyModelActor pid=93726)           (input_layernorm): Qwen3_5RMSNorm((2048,), eps=1e-06)\n(EBFTPolicyModelActor pid=93726)           (post_attention_layernorm): Qwen3_5RMSNorm((2048,), eps\n(EBFTPolicyModelActor pid=93726)           (post_attention_layernorm): Qwen3_5RMSNorm((2048,), eps=1e-06)\n(EBFTPolicyModelActor pid=93726)         )\n(EBFTPolicyModelActor pid=93726)         (11): Qwen3_5DecoderLayer(\n(EBFTPolicyModelActor pid=93726)           (self_attn): Qwen3_5Attention(\n(EBFTPolicyModelActor pid=93726)             (q_proj): Linear(in_features=2048, out_features=4096,\n(EBFTPolicyModelActor pid=93726)             (q_proj): Linear(in_features=2048, out_features=4096, bias=False)\n(EBFTPolicyModelActor pid=93726)             (k_proj): Linear(in_features=2048, out_features=512, \n(EBFTPolicyModelActor pid=93726)             (k_proj): Linear(in_features=2048, out_features=512, bias=False)\n(EBFTPolicyModelActor pid=93726)             (v_proj): Linear(in_features=2048, out_features=512, \n(EBFTPolicyModelActor pid=93726)             (v_proj): Linear(in_features=2048, out_features=512, bias=False)\n(EBFTPolicyModelActor pid=93726)             (o_proj): Linear(in_features=2048, out_features=2048,\n(EBFTPolicyModelActor pid=93726)             (o_proj): Linear(in_features=2048, out_features=2048, bias=False)\n(EBFTPolicyModelActor pid=93726)             (q_norm): Qwen3_5RMSNorm((256,), eps=1e-06)\n(EBFTPolicyModelActor pid=93726)             (k_norm): Qwen3_5RMSNorm((256,), eps=1e-06)\n(EBFTPolicyModelActor pid=93726)           )\n(EBFTPolicyModelActor pid=93726)           (mlp): Qwen3_5MLP(\n(EBFTPolicyModelActor pid=93726)             (gate_proj): Linear(in_features=2048, out_features=61\n(EBFTPolicyModelActor pid=93726)             (gate_proj): Linear(in_features=2048, out_features=6144, bias=False)\n(EBFTPolicyModelActor pid=93726)             (up_proj): Linear(in_features=2048, out_features=6144\n(EBFTPolicyModelActor pid=93726)             (up_proj): Linear(in_features=2048, out_features=6144, bias=False)\n(EBFTPolicyModelActor pid=93726)             (down_proj): Linear(in_features=6144, out_features=20\n(EBFTPolicyModelActor pid=93726)             (down_proj): Linear(in_features=6144, out_features=2048, bias=False)\n(EBFTPolicyModelActor pid=93726)             (act_fn): SiLUActivation()\n(EBFTPolicyModelActor pid=93726)           )\n(EBFTPolicyModelActor pid=93726)           (input_layernorm): Qwen3_5RMSNorm((2048,), eps=1e-06)\n(EBFTPolicyModelActor pid=93726)           (post_attention_layernorm): Qwen3_5RMSNorm((2048,), eps\n(EBFTPolicyModelActor pid=93726)           (post_attention_layernorm): Qwen3_5RMSNorm((2048,), eps=1e-06)\n(EBFTPolicyModelActor pid=93726)         )\n(EBFTPolicyModelActor pid=93726)         (12-14): 3 x Qwen3_5DecoderLayer(\n(EBFTPolicyModelActor pid=93726)           (linear_attn): Qwen3_5GatedDeltaNet(\n(EBFTPolicyModelActor pid=93726)             (act): SiLUActivation()\n(EBFTPolicyModelActor pid=93726)             (conv1d): Conv1d(6144, 6144, kernel_size=(4,), stride\n(EBFTPolicyModelActor pid=93726)             (conv1d): Conv1d(6144, 6144, kernel_size=(4,), stride=(1,), padding=(3,), groups=6144, bias=False)\n(EBFTPolicyModelActor pid=93726)             (norm): Qwen3_5RMSNormGated()\n(EBFTPolicyModelActor pid=93726)             (out_proj): Linear(in_features=2048, out_features=204\n(EBFTPolicyModelActor pid=93726)             (out_proj): Linear(in_features=2048, out_features=2048, bias=False)\n(EBFTPolicyModelActor pid=93726)             (in_proj_qkv): Linear(in_features=2048, out_features=\n(EBFTPolicyModelActor pid=93726)             (in_proj_qkv): Linear(in_features=2048, out_features=6144, bias=False)\n(EBFTPolicyModelActor pid=93726)             (in_proj_z): Linear(in_features=2048, out_features=20\n(EBFTPolicyModelActor pid=93726)             (in_proj_z): Linear(in_features=2048, out_features=2048, bias=False)\n(EBFTPolicyModelActor pid=93726)             (in_proj_b): Linear(in_features=2048, out_features=16\n(EBFTPolicyModelActor pid=93726)             (in_proj_b): Linear(in_features=2048, out_features=16, bias=False)\n(EBFTPolicyModelActor pid=93726)             (in_proj_a): Linear(in_features=2048, out_features=16\n(EBFTPolicyModelActor pid=93726)             (in_proj_a): Linear(in_features=2048, out_features=16, bias=False)\n(EBFTPolicyModelActor pid=93726)           )\n(EBFTPolicyModelActor pid=93726)           (mlp): Qwen3_5MLP(\n(EBFTPolicyModelActor pid=93726)             (gate_proj): Linear(in_features=2048, out_features=61\n(EBFTPolicyModelActor pid=93726)             (gate_proj): Linear(in_features=2048, out_features=6144, bias=False)\n(EBFTPolicyModelActor pid=93726)             (up_proj): Linear(in_features=2048, out_features=6144\n(EBFTPolicyModelActor pid=93726)             (up_proj): Linear(in_features=2048, out_features=6144, bias=False)\n(EBFTPolicyModelActor pid=93726)             (down_proj): Linear(in_features=6144, out_features=20\n(EBFTPolicyModelActor pid=93726)             (down_proj): Linear(in_features=6144, out_features=2048, bias=False)\n(EBFTPolicyModelActor pid=93726)             (act_fn): SiLUActivation()\n(EBFTPolicyModelActor pid=93726)           )\n(EBFTPolicyModelActor pid=93726)           (input_layernorm): Qwen3_5RMSNorm((2048,), eps=1e-06)\n(EBFTPolicyModelActor pid=93726)           (post_attention_layernorm): Qwen3_5RMSNorm((2048,), eps\n(EBFTPolicyModelActor pid=93726)           (post_attention_layernorm): Qwen3_5RMSNorm((2048,), eps=1e-06)\n(EBFTPolicyModelActor pid=93726)         )\n(EBFTPolicyModelActor pid=93726)         (15): Qwen3_5DecoderLayer(\n(EBFTPolicyModelActor pid=93726)           (self_attn): Qwen3_5Attention(\n(EBFTPolicyModelActor pid=93726)             (q_proj): Linear(in_features=2048, out_features=4096,\n(EBFTPolicyModelActor pid=93726)             (q_proj): Linear(in_features=2048, out_features=4096, bias=False)\n(EBFTPolicyModelActor pid=93726)             (k_proj): Linear(in_features=2048, out_features=512, \n(EBFTPolicyModelActor pid=93726)             (k_proj): Linear(in_features=2048, out_features=512, bias=False)\n(EBFTPolicyModelActor pid=93726)             (v_proj): Linear(in_features=2048, out_features=512, \n(EBFTPolicyModelActor pid=93726)             (v_proj): Linear(in_features=2048, out_features=512, bias=False)\n(EBFTPolicyModelActor pid=93726)             (o_proj): Linear(in_features=2048, out_features=2048,\n(EBFTPolicyModelActor pid=93726)             (o_proj): Linear(in_features=2048, out_features=2048, bias=False)\n(EBFTPolicyModelActor pid=93726)             (q_norm): Qwen3_5RMSNorm((256,), eps=1e-06)\n(EBFTPolicyModelActor pid=93726)             (k_norm): Qwen3_5RMSNorm((256,), eps=1e-06)\n(EBFTPolicyModelActor pid=93726)           )\n(EBFTPolicyModelActor pid=93726)           (mlp): Qwen3_5MLP(\n(EBFTPolicyModelActor pid=93726)             (gate_proj): Linear(in_features=2048, out_features=61\n(EBFTPolicyModelActor pid=93726)             (gate_proj): Linear(in_features=2048, out_features=6144, bias=False)\n(EBFTPolicyModelActor pid=93726)             (up_proj): Linear(in_features=2048, out_features=6144\n(EBFTPolicyModelActor pid=93726)             (up_proj): Linear(in_features=2048, out_features=6144, bias=False)\n(EBFTPolicyModelActor pid=93726)             (down_proj): Linear(in_features=6144, out_features=20\n(EBFTPolicyModelActor pid=93726)             (down_proj): Linear(in_features=6144, out_features=2048, bias=False)\n(EBFTPolicyModelActor pid=93726)             (act_fn): SiLUActivation()\n(EBFTPolicyModelActor pid=93726)           )\n(EBFTPolicyModelActor pid=93726)           (input_layernorm): Qwen3_5RMSNorm((2048,), eps=1e-06)\n(EBFTPolicyModelActor pid=93726)           (post_attention_layernorm): Qwen3_5RMSNorm((2048,), eps\n(EBFTPolicyModelActor pid=93726)           (post_attention_layernorm): Qwen3_5RMSNorm((2048,), eps=1e-06)\n(EBFTPolicyModelActor pid=93726)         )\n(EBFTPolicyModelActor pid=93726)         (16-18): 3 x Qwen3_5DecoderLayer(\n(EBFTPolicyModelActor pid=93726)           (linear_attn): Qwen3_5GatedDeltaNet(\n(EBFTPolicyModelActor pid=93726)             (act): SiLUActivation()\n(EBFTPolicyModelActor pid=93726)             (conv1d): Conv1d(6144, 6144, kernel_size=(4,), stride\n(EBFTPolicyModelActor pid=93726)             (conv1d): Conv1d(6144, 6144, kernel_size=(4,), stride=(1,), padding=(3,), groups=6144, bias=False)\n(EBFTPolicyModelActor pid=93726)             (norm): Qwen3_5RMSNormGated()\n(EBFTPolicyModelActor pid=93726)             (out_proj): Linear(in_features=2048, out_features=204\n(EBFTPolicyModelActor pid=93726)             (out_proj): Linear(in_features=2048, out_features=2048, bias=False)\n(EBFTPolicyModelActor pid=93726)             (in_proj_qkv): Linear(in_features=2048, out_features=\n(EBFTPolicyModelActor pid=93726)             (in_proj_qkv): Linear(in_features=2048, out_features=6144, bias=False)\n(EBFTPolicyModelActor pid=93726)             (in_proj_z): Linear(in_features=2048, out_features=20\n(EBFTPolicyModelActor pid=93726)             (in_proj_z): Linear(in_features=2048, out_features=2048, bias=False)\n(EBFTPolicyModelActor pid=93726)             (in_proj_b): Linear(in_features=2048, out_features=16\n(EBFTPolicyModelActor pid=93726)             (in_proj_b): Linear(in_features=2048, out_features=16, bias=False)\n(EBFTPolicyModelActor pid=93726)             (in_proj_a): Linear(in_features=2048, out_features=16\n(EBFTPolicyModelActor pid=93726)             (in_proj_a): Linear(in_features=2048, out_features=16, bias=False)\n(EBFTPolicyModelActor pid=93726)           )\n(EBFTPolicyModelActor pid=93726)           (mlp): Qwen3_5MLP(\n(EBFTPolicyModelActor pid=93726)             (gate_proj): Linear(in_features=2048, out_features=61\n(EBFTPolicyModelActor pid=93726)             (gate_proj): Linear(in_features=2048, out_features=6144, bias=False)\n(EBFTPolicyModelActor pid=93726)             (up_proj): Linear(in_features=2048, out_features=6144\n(EBFTPolicyModelActor pid=93726)             (up_proj): Linear(in_features=2048, out_features=6144, bias=False)\n(EBFTPolicyModelActor pid=93726)             (down_proj): Linear(in_features=6144, out_features=20\n(EBFTPolicyModelActor pid=93726)             (down_proj): Linear(in_features=6144, out_features=2048, bias=False)\n(EBFTPolicyModelActor pid=93726)             (act_fn): SiLUActivation()\n(EBFTPolicyModelActor pid=93726)           )\n(EBFTPolicyModelActor pid=93726)           (input_layernorm): Qwen3_5RMSNorm((2048,), eps=1e-06)\n(EBFTPolicyModelActor pid=93726)           (post_attention_layernorm): Qwen3_5RMSNorm((2048,), eps\n(EBFTPolicyModelActor pid=93726)           (post_attention_layernorm): Qwen3_5RMSNorm((2048,), eps=1e-06)\n(EBFTPolicyModelActor pid=93726)         )\n(EBFTPolicyModelActor pid=93726)         (19): Qwen3_5DecoderLayer(\n(EBFTPolicyModelActor pid=93726)           (self_attn): Qwen3_5Attention(\n(EBFTPolicyModelActor pid=93726)             (q_proj): Linear(in_features=2048, out_features=4096,\n(EBFTPolicyModelActor pid=93726)             (q_proj): Linear(in_features=2048, out_features=4096, bias=False)\n(EBFTPolicyModelActor pid=93726)             (k_proj): Linear(in_features=2048, out_features=512, \n(EBFTPolicyModelActor pid=93726)             (k_proj): Linear(in_features=2048, out_features=512, bias=False)\n(EBFTPolicyModelActor pid=93726)             (v_proj): Linear(in_features=2048, out_features=512, \n(EBFTPolicyModelActor pid=93726)             (v_proj): Linear(in_features=2048, out_features=512, bias=False)\n(EBFTPolicyModelActor pid=93726)             (o_proj): Linear(in_features=2048, out_features=2048,\n(EBFTPolicyModelActor pid=93726)             (o_proj): Linear(in_features=2048, out_features=2048, bias=False)\n(EBFTPolicyModelActor pid=93726)             (q_norm): Qwen3_5RMSNorm((256,), eps=1e-06)\n(EBFTPolicyModelActor pid=93726)             (k_norm): Qwen3_5RMSNorm((256,), eps=1e-06)\n(EBFTPolicyModelActor pid=93726)           )\n(EBFTPolicyModelActor pid=93726)           (mlp): Qwen3_5MLP(\n(EBFTPolicyModelActor pid=93726)             (gate_proj): Linear(in_features=2048, out_features=61\n(EBFTPolicyModelActor pid=93726)             (gate_proj): Linear(in_features=2048, out_features=6144, bias=False)\n(EBFTPolicyModelActor pid=93726)             (up_proj): Linear(in_features=2048, out_features=6144\n(EBFTPolicyModelActor pid=93726)             (up_proj): Linear(in_features=2048, out_features=6144, bias=False)\n(EBFTPolicyModelActor pid=93726)             (down_proj): Linear(in_features=6144, out_features=20\n(EBFTPolicyModelActor pid=93726)             (down_proj): Linear(in_features=6144, out_features=2048, bias=False)\n(EBFTPolicyModelActor pid=93726)             (act_fn): SiLUActivation()\n(EBFTPolicyModelActor pid=93726)           )\n(EBFTPolicyModelActor pid=93726)           (input_layernorm): Qwen3_5RMSNorm((2048,), eps=1e-06)\n(EBFTPolicyModelActor pid=93726)           (post_attention_layernorm): Qwen3_5RMSNorm((2048,), eps\n(EBFTPolicyModelActor pid=93726)           (post_attention_layernorm): Qwen3_5RMSNorm((2048,), eps=1e-06)\n(EBFTPolicyModelActor pid=93726)         )\n(EBFTPolicyModelActor pid=93726)         (20-22): 3 x Qwen3_5DecoderLayer(\n(EBFTPolicyModelActor pid=93726)           (linear_attn): Qwen3_5GatedDeltaNet(\n(EBFTPolicyModelActor pid=93726)             (act): SiLUActivation()\n(EBFTPolicyModelActor pid=93726)             (conv1d): Conv1d(6144, 6144, kernel_size=(4,), stride\n(EBFTPolicyModelActor pid=93726)             (conv1d): Conv1d(6144, 6144, kernel_size=(4,), stride=(1,), padding=(3,), groups=6144, bias=False)\n(EBFTPolicyModelActor pid=93726)             (norm): Qwen3_5RMSNormGated()\n(EBFTPolicyModelActor pid=93726)             (out_proj): Linear(in_features=2048, out_features=204\n(EBFTPolicyModelActor pid=93726)             (out_proj): Linear(in_features=2048, out_features=2048, bias=False)\n(EBFTPolicyModelActor pid=93726)             (in_proj_qkv): Linear(in_features=2048, out_features=\n(EBFTPolicyModelActor pid=93726)             (in_proj_qkv): Linear(in_features=2048, out_features=6144, bias=False)\n(EBFTPolicyModelActor pid=93726)             (in_proj_z): Linear(in_features=2048, out_features=20\n(EBFTPolicyModelActor pid=93726)             (in_proj_z): Linear(in_features=2048, out_features=2048, bias=False)\n(EBFTPolicyModelActor pid=93726)             (in_proj_b): Linear(in_features=2048, out_features=16\n(EBFTPolicyModelActor pid=93726)             (in_proj_b): Linear(in_features=2048, out_features=16, bias=False)\n(EBFTPolicyModelActor pid=93726)             (in_proj_a): Linear(in_features=2048, out_features=16\n(EBFTPolicyModelActor pid=93726)             (in_proj_a): Linear(in_features=2048, out_features=16, bias=False)\n(EBFTPolicyModelActor pid=93726)           )\n(EBFTPolicyModelActor pid=93726)           (mlp): Qwen3_5MLP(\n(EBFTPolicyModelActor pid=93726)             (gate_proj): Linear(in_features=2048, out_features=61\n(EBFTPolicyModelActor pid=93726)             (gate_proj): Linear(in_features=2048, out_features=6144, bias=False)\n(EBFTPolicyModelActor pid=93726)             (up_proj): Linear(in_features=2048, out_features=6144\n(EBFTPolicyModelActor pid=93726)             (up_proj): Linear(in_features=2048, out_features=6144, bias=False)\n(EBFTPolicyModelActor pid=93726)             (down_proj): Linear(in_features=6144, out_features=20\n(EBFTPolicyModelActor pid=93726)             (down_proj): Linear(in_features=6144, out_features=2048, bias=False)\n(EBFTPolicyModelActor pid=93726)             (act_fn): SiLUActivation()\n(EBFTPolicyModelActor pid=93726)           )\n(EBFTPolicyModelActor pid=93726)           (input_layernorm): Qwen3_5RMSNorm((2048,), eps=1e-06)\n(EBFTPolicyModelActor pid=93726)           (post_attention_layernorm): Qwen3_5RMSNorm((2048,), eps\n(EBFTPolicyModelActor pid=93726)           (post_attention_layernorm): Qwen3_5RMSNorm((2048,), eps=1e-06)\n(EBFTPolicyModelActor pid=93726)         )\n(EBFTPolicyModelActor pid=93726)         (23): Qwen3_5DecoderLayer(\n(EBFTPolicyModelActor pid=93726)           (self_attn): Qwen3_5Attention(\n(EBFTPolicyModelActor pid=93726)             (q_proj): Linear(in_features=2048, out_features=4096,\n(EBFTPolicyModelActor pid=93726)             (q_proj): Linear(in_features=2048, out_features=4096, bias=False)\n(EBFTPolicyModelActor pid=93726)             (k_proj): Linear(in_features=2048, out_features=512, \n(EBFTPolicyModelActor pid=93726)             (k_proj): Linear(in_features=2048, out_features=512, bias=False)\n(EBFTPolicyModelActor pid=93726)             (v_proj): Linear(in_features=2048, out_features=512, \n(EBFTPolicyModelActor pid=93726)             (v_proj): Linear(in_features=2048, out_features=512, bias=False)\n(EBFTPolicyModelActor pid=93726)             (o_proj): Linear(in_features=2048, out_features=2048,\n(EBFTPolicyModelActor pid=93726)             (o_proj): Linear(in_features=2048, out_features=2048, bias=False)\n(EBFTPolicyModelActor pid=93726)             (q_norm): Qwen3_5RMSNorm((256,), eps=1e-06)\n(EBFTPolicyModelActor pid=93726)             (k_norm): Qwen3_5RMSNorm((256,), eps=1e-06)\n(EBFTPolicyModelActor pid=93726)           )\n(EBFTPolicyModelActor pid=93726)           (mlp): Qwen3_5MLP(\n(EBFTPolicyModelActor pid=93726)             (gate_proj): Linear(in_features=2048, out_features=61\n(EBFTPolicyModelActor pid=93726)             (gate_proj): Linear(in_features=2048, out_features=6144, bias=False)\n(EBFTPolicyModelActor pid=93726)             (up_proj): Linear(in_features=2048, out_features=6144\n(EBFTPolicyModelActor pid=93726)             (up_proj): Linear(in_features=2048, out_features=6144, bias=False)\n(EBFTPolicyModelActor pid=93726)             (down_proj): Linear(in_features=6144, out_features=20\n(EBFTPolicyModelActor pid=93726)             (down_proj): Linear(in_features=6144, out_features=2048, bias=False)\n(EBFTPolicyModelActor pid=93726)             (act_fn): SiLUActivation()\n(EBFTPolicyModelActor pid=93726)           )\n(EBFTPolicyModelActor pid=93726)           (input_layernorm): Qwen3_5RMSNorm((2048,), eps=1e-06)\n(EBFTPolicyModelActor pid=93726)           (post_attention_layernorm): Qwen3_5RMSNorm((2048,), eps\n(EBFTPolicyModelActor pid=93726)           (post_attention_layernorm): Qwen3_5RMSNorm((2048,), eps=1e-06)\n(EBFTPolicyModelActor pid=93726)         )\n(EBFTPolicyModelActor pid=93726)       )\n(EBFTPolicyModelActor pid=93726)       (norm): Qwen3_5RMSNorm((2048,), eps=1e-06)\n(EBFTPolicyModelActor pid=93726)       (rotary_emb): Qwen3_5TextRotaryEmbedding()\n(EBFTPolicyModelActor pid=93726)     )\n(EBFTPolicyModelActor pid=93726)     (lm_head): Linear(in_features=2048, out_features=248320, bias\n(EBFTPolicyModelActor pid=93726)     (lm_head): Linear(in_features=2048, out_features=248320, bias=False)\n(EBFTPolicyModelActor pid=93726)   )\n(EBFTPolicyModelActor pid=93726) )\n(EBFTPolicyModelActor pid=94355) /root/code/data/Distributional-Match-Tuning/.venv/lib/python3.12/\n(EBFTPolicyModelActor pid=94355) /root/code/data/Distributional-Match-Tuning/.venv/lib/python3.12/site-packages/torch/utils/cpp_extension.py:1964: UserWarning: TORCH_CUDA_ARC
…
