…
[36m(EBFTTrainer pid=313713)[0m INFO 03-24 21:58:52 ebft_trainer.py:698] max_steps=4
[36m(EBFTTrainer pid=313713)[0m INFO 03-24 21:58:52 ebft_trainer.py:835] max steps: 4
[36m(EBFTTrainer pid=313713)[0m INFO 03-24 21:58:52 ebft_trainer.py:836] save steps: [1, 1, 1, 1, 2, 2, 2, 3, 3, 4]
[36m(EBFTPolicyModelActor pid=313711)[0m NCCL version 2.21.5+cuda12.4
[36m(EBFTPolicyModelActor pid=313711)[0m Actor(
[36m(EBFTPolicyModelActor pid=313711)[0m   (model): Qwen3_5ForCausalLM(
[36m(EBFTPolicyModelActor pid=313711)[0m     (model): Qwen3_5TextModel(
[36m(EBFTPolicyModelActor pid=313711)[0m       (embed_tokens): Embedding(248320, 2048)
[36m(EBFTPolicyModelActor pid=313711)[0m       (layers): ModuleList(
[36m(EBFTPolicyModelActor pid=313711)[0m         (0-2): 3 x Qwen3_5DecoderLayer(
[36m(EBFTPolicyModelActor pid=313711)[0m           (linear_attn): Qwen3_5GatedDeltaNet(
[36m(EBFTPolicyModelActor pid=313711)[0m             (act): SiLUActivation()
[36m(EBFTPolicyModelActor pid=313711)[0m             (conv1d): Conv1d(6144, 6144, kernel_size=(4,), stride=(1,), padding=(3,), groups=6144, bias=False)
[36m(EBFTPolicyModelActor pid=313711)[0m             (norm): Qwen3_5RMSNormGated()
[36m(EBFTPolicyModelActor pid=313711)[0m             (out_proj): Linear(in_features=2048, out_features=2048, bias=False)
[36m(EBFTPolicyModelActor pid=313711)[0m             (in_proj_qkv): Linear(in_features=2048, out_features=6144, bias=False)
[36m(EBFTPolicyModelActor pid=313711)[0m             (in_proj_z): Linear(in_features=2048, out_features=2048, bias=False)
[36m(EBFTPolicyModelActor pid=313711)[0m             (in_proj_b): Linear(in_features=2048, out_features=16, bias=False)
[36m(EBFTPolicyModelActor pid=313711)[0m             (in_proj_a): Linear(in_features=2048, out_features=16, bias=False)
[36m(EBFTPolicyModelActor pid=313711)[0m           )
[36m(EBFTPolicyModelActor pid=313711)[0m           (mlp): Qwen3_5MLP(
[36m(EBFTPolicyModelActor pid=313711)[0m             (gate_proj): Linear(in_features=2048, out_features=6144, bias=False)
[36m(EBFTPolicyModelActor pid=313711)[0m             (up_proj): Linear(in_features=2048, out_features=6144, bias=False)
[36m(EBFTPolicyModelActor pid=313711)[0m             (down_proj): Linear(in_features=6144, out_features=2048, bias=False)
[36m(EBFTPolicyModelActor pid=313711)[0m             (act_fn): SiLUActivation()
[36m(EBFTPolicyModelActor pid=313711)[0m           )
[36m(EBFTPolicyModelActor pid=313711)[0m           (input_layernorm): Qwen3_5RMSNorm((2048,), eps=1e-06)
[36m(EBFTPolicyModelActor pid=313711)[0m           (post_attention_layernorm): Qwen3_5RMSNorm((2048,), eps=1e-06)
[36m(EBFTPolicyModelActor pid=313711)[0m         )
[36m(EBFTPolicyModelActor pid=313711)[0m         (3): Qwen3_5DecoderLayer(
[36m(EBFTPolicyModelActor pid=313711)[0m           (self_attn): Qwen3_5Attention(
[36m(EBFTPolicyModelActor pid=313711)[0m             (q_proj): Linear(in_features=2048, out_features=4096, bias=False)
[36m(EBFTPolicyModelActor pid=313711)[0m             (k_proj): Linear(in_features=2048, out_features=512, bias=False)
[36m(EBFTPolicyModelActor pid=313711)[0m             (v_proj): Linear(in_features=2048, out_features=512, bias=False)
[36m(EBFTPolicyModelActor pid=313711)[0m             (o_proj): Linear(in_features=2048, out_features=2048, bias=False)
[36m(EBFTPolicyModelActor pid=313711)[0m             (q_norm): Qwen3_5RMSNorm((256,), eps=1e-06)
[36m(EBFTPolicyModelActor pid=313711)[0m             (k_norm): Qwen3_5RMSNorm((256,), eps=1e-06)
[36m(EBFTPolicyModelActor pid=313711)[0m           )
[36m(EBFTPolicyModelActor pid=313711)[0m           (mlp): Qwen3_5MLP(
[36m(EBFTPolicyModelActor pid=313711)[0m             (gate_proj): Linear(in_features=2048, out_features=6144, bias=False)
[36m(EBFTPolicyModelActor pid=313711)[0m             (up_proj): Linear(in_features=2048, out_features=6144, bias=False)
[36m(EBFTPolicyModelActor pid=313711)[0m             (down_proj): Linear(in_features=6144, out_features=2048, bias=False)
[36m(EBFTPolicyModelActor pid=313711)[0m             (act_fn): SiLUActivation()
[36m(EBFTPolicyModelActor pid=313711)[0m           )
[36m(EBFTPolicyModelActor pid=313711)[0m           (input_layernorm): Qwen3_5RMSNorm((2048,), eps=1e-06)
[36m(EBFTPolicyModelActor pid=313711)[0m           (post_attention_layernorm): Qwen3_5RMSNorm((2048,), eps=1e-06)
[36m(EBFTPolicyModelActor pid=313711)[0m         )
[36m(EBFTPolicyModelActor pid=313711)[0m         (4-6): 3 x Qwen3_5DecoderLayer(
[36m(EBFTPolicyModelActor pid=313711)[0m           (linear_attn): Qwen3_5GatedDeltaNet(
[36m(EBFTPolicyModelActor pid=313711)[0m             (act): SiLUActivation()
[36m(EBFTPolicyModelActor pid=313711)[0m             (conv1d): Conv1d(6144, 6144, kernel_size=(4,), stride=(1,), padding=(3,), groups=6144, bias=False)
[36m(EBFTPolicyModelActor pid=313711)[0m             (norm): Qwen3_5RMSNormGated()
[36m(EBFTPolicyModelActor pid=313711)[0m             (out_proj): Linear(in_features=2048, out_features=2048, bias=False)
[36m(EBFTPolicyModelActor pid=313711)[0m             (in_proj_qkv): Linear(in_features=2048, out_features=6144, bias=False)
[36m(EBFTPolicyModelActor pid=313711)[0m             (in_proj_z): Linear(in_features=2048, out_features=2048, bias=False)
[36m(EBFTPolicyModelActor pid=313711)[0m             (in_proj_b): Linear(in_features=2048, out_features=16, bias=False)
[36m(EBFTPolicyModelActor pid=313711)[0m             (in_proj_a): Linear(in_features=2048, out_features=16, bias=False)
[36m(EBFTPolicyModelActor pid=313711)[0m           )
[36m(EBFTPolicyModelActor pid=313711)[0m           (mlp): Qwen3_5MLP(
[36m(EBFTPolicyModelActor pid=313711)[0m             (gate_proj): Linear(in_features=2048, out_features=6144, bias=False)
[36m(EBFTPolicyModelActor pid=313711)[0m             (up_proj): Linear(in_features=2048, out_features=6144, bias=False)
[36m(EBFTPolicyModelActor pid=313711)[0m             (down_proj): Linear(in_features=6144, out_features=2048, bias=False)
[36m(EBFTPolicyModelActor pid=313711)[0m             (act_fn): SiLUActivation()
[36m(EBFTPolicyModelActor pid=313711)[0m           )
[36m(EBFTPolicyModelActor pid=313711)[0m           (input_layernorm): Qwen3_5RMSNorm((2048,), eps=1e-06)
[36m(EBFTPolicyModelActor pid=313711)[0m           (post_attention_layernorm): Qwen3_5RMSNorm((2048,), eps=1e-06)
[36m(EBFTPolicyModelActor pid=313711)[0m         )
[36m(EBFTPolicyModelActor pid=313711)[0m         (7): Qwen3_5DecoderLayer(
[36m(EBFTPolicyModelActor pid=313711)[0m           (self_attn): Qwen3_5Attention(
[36m(EBFTPolicyModelActor pid=313711)[0m             (q_proj): Linear(in_features=2048, out_features=4096, bias=False)
[36m(EBFTPolicyModelActor pid=313711)[0m             (k_proj): Linear(in_features=2048, out_features=512, bias=False)
[36m(EBFTPolicyModelActor pid=313711)[0m             (v_proj): Linear(in_features=2048, out_features=512, bias=False)
[36m(EBFTPolicyModelActor pid=313711)[0m             (o_proj): Linear(in_features=2048, out_features=2048, bias=False)
[36m(EBFTPolicyModelActor pid=313711)[0m             (q_norm): Qwen3_5RMSNorm((256,), eps=1e-06)
[36m(EBFTPolicyModelActor pid=313711)[0m             (k_norm): Qwen3_5RMSNorm((256,), eps=1e-06)
[36m(EBFTPolicyModelActor pid=313711)[0m           )
[36m(EBFTPolicyModelActor pid=313711)[0m           (mlp): Qwen3_5MLP(
[36m(EBFTPolicyModelActor pid=313711)[0m             (gate_proj): Linear(in_features=2048, out_features=6144, bias=False)
[36m(EBFTPolicyModelActor pid=313711)[0m             (up_proj): Linear(in_features=2048, out_features=6144, bias=False)
[36m(EBFTPolicyModelActor pid=313711)[0m             (down_proj): Linear(in_features=6144, out_features=2048, bias=False)
[36m(EBFTPolicyModelActor pid=313711)[0m             (act_fn): SiLUActivation()
[36m(EBFTPolicyModelActor pid=313711)[0m           )
[36m(EBFTPolicyModelActor pid=313711)[0m           (input_layernorm): Qwen3_5RMSNorm((2048,), eps=1e-06)
[36m(EBFTPolicyModelActor pid=313711)[0m           (post_attention_layernorm): Qwen3_5RMSNorm((2048,), eps=1e-06)
[36m(EBFTPolicyModelActor pid=313711)[0m         )
[36m(EBFTPolicyModelActor pid=313711)[0m         (8-10): 3 x Qwen3_5DecoderLayer(
[36m(EBFTPolicyModelActor pid=313711)[0m           (linear_attn): Qwen3_5GatedDeltaNet(
[36m(EBFTPolicyModelActor pid=313711)[0m             (act): SiLUActivation()
[36m(EBFTPolicyModelActor pid=313711)[0m             (conv1d): Conv1d(6144, 6144, kernel_size=(4,), stride=(1,), padding=(3,), groups=6144, bias=False)
[36m(EBFTPolicyModelActor pid=313711)[0m             (norm): Qwen3_5RMSNormGated()
[36m(EBFTPolicyModelActor pid=313711)[0m             (out_proj): Linear(in_features=2048, out_features=2048, bias=False)
[36m(EBFTPolicyModelActor pid=313711)[0m             (in_proj_qkv): Linear(in_features=2048, out_features=6144, bias=False)
[36m(EBFTPolicyModelActor pid=313711)[0m             (in_proj_z): Linear(in_features=2048, out_features=2048, bias=False)
[36m(EBFTPolicyModelActor pid=313711)[0m             (in_proj_b): Linear(in_features=2048, out_features=16, bias=False)
[36m(EBFTPolicyModelActor pid=313711)[0m             (in_proj_a): Linear(in_features=2048, out_features=16, bias=False)
[36m(EBFTPolicyModelActor pid=313711)[0m           )
[36m(EBFTPolicyModelActor pid=313711)[0m           (mlp): Qwen3_5MLP(
[36m(EBFTPolicyModelActor pid=313711)[0m             (gate_proj): Linear(in_features=2048, out_features=6144, bias=False)
[36m(EBFTPolicyModelActor pid=313711)[0m             (up_proj): Linear(in_features=2048, out_features=6144, bias=False)
[36m(EBFTPolicyModelActor pid=313711)[0m             (down_proj): Linear(in_features=6144, out_features=2048, bias=False)
[36m(EBFTPolicyModelActor pid=313711)[0m             (act_fn): SiLUActivation()
[36m(EBFTPolicyModelActor pid=313711)[0m           )
[36m(EBFTPolicyModelActor pid=313711)[0m           (input_layernorm): Qwen3_5RMSNorm((2048,), eps=1e-06)
[36m(EBFTPolicyModelActor pid=313711)[0m           (post_attention_layernorm): Qwen3_5RMSNorm((2048,), eps=1e-06)
[36m(EBFTPolicyModelActor pid=313711)[0m         )
[36m(EBFTPolicyModelActor pid=313711)[0m         (11): Qwen3_5DecoderLayer(
[36m(EBFTPolicyModelActor pid=313711)[0m           (self_attn): Qwen3_5Attention(
[36m(EBFTPolicyModelActor pid=313711)[0m             (q_proj): Linear(in_features=2048, out_features=4096, bias=False)
[36m(EBFTPolicyModelActor pid=313711)[0m             (k_proj): Linear(in_features=2048, out_features=512, bias=False)
[36m(EBFTPolicyModelActor pid=313711)[0m             (v_proj): Linear(in_features=2048, out_features=512, bias=False)
[36m(EBFTPolicyModelActor pid=313711)[0m             (o_proj): Linear(in_features=2048, out_features=2048, bias=False)
[36m(EBFTPolicyModelActor pid=313711)[0m             (q_norm): Qwen3_5RMSNorm((256,), eps=1e-06)
[36m(EBFTPolicyModelActor pid=313711)[0m             (k_norm): Qwen3_5RMSNorm((256,), eps=1e-06)
[36m(EBFTPolicyModelActor pid=313711)[0m           )
[36m(EBFTPolicyModelActor pid=313711)[0m           (mlp): Qwen3_5MLP(
[36m(EBFTPolicyModelActor pid=313711)[0m             (gate_proj): Linear(in_features=2048, out_features=6144, bias=False)
[36m(EBFTPolicyModelActor pid=313711)[0m             (up_proj): Linear(in_features=2048, out_features=6144, bias=False)
[36m(EBFTPolicyModelActor pid=313711)[0m             (down_proj): Linear(in_features=6144, out_features=2048, bias=False)
[36m(EBFTPolicyModelActor pid=313711)[0m             (act_fn): SiLUActivation()
[36m(EBFTPolicyModelActor pid=313711)[0m           )
[36m(EBFTPolicyModelActor pid=313711)[0m           (input_layernorm): Qwen3_5RMSNorm((2048,), eps=1e-06)
[36m(EBFTPolicyModelActor pid=313711)[0m           (post_attention_layernorm): Qwen3_5RMSNorm((2048,), eps=1e-06)
[36m(EBFTPolicyModelActor pid=313711)[0m         )
[36m(EBFTPolicyModelActor pid=313711)[0m         (12-14): 3 x Qwen3_5DecoderLayer(
[36m(EBFTPolicyModelActor pid=313711)[0m           (linear_attn): Qwen3_5GatedDeltaNet(
[36m(EBFTPolicyModelActor pid=313711)[0m             (act): SiLUActivation()
[36m(EBFTPolicyModelActor pid=313711)[0m             (conv1d): Conv1d(6144, 6144, kernel_size=(4,), stride=(1,), padding=(3,), groups=6144, bias=False)
[36m(EBFTPolicyModelActor pid=313711)[0m             (norm): Qwen3_5RMSNormGated()
[36m(EBFTPolicyModelActor pid=313711)[0m             (out_proj): Linear(in_features=2048, out_features=2048, bias=False)
[36m(EBFTPolicyModelActor pid=313711)[0m             (in_proj_qkv): Linear(in_features=2048, out_features=6144, bias=False)
[36m(EBFTPolicyModelActor pid=313711)[0m             (in_proj_z): Linear(in_features=2048, out_features=2048, bias=False)
[36m(EBFTPolicyModelActor pid=313711)[0m             (in_proj_b): Linear(in_features=2048, out_features=16, bias=False)
[36m(EBFTPolicyModelActor pid=313711)[0m             (in_proj_a): Linear(in_features=2048, out_features=16, bias=False)
[36m(EBFTPolicyModelActor pid=313711)[0m           )
[36m(EBFTPolicyModelActor pid=313711)[0m           (mlp): Qwen3_5MLP(
[36m(EBFTPolicyModelActor pid=313711)[0m             (gate_proj): Linear(in_features=2048, out_features=6144, bias=False)
[36m(EBFTPolicyModelActor pid=313711)[0m             (up_proj): Linear(in_features=2048, out_features=6144, bias=False)
[36m(EBFTPolicyModelActor pid=313711)[0m             (down_proj): Linear(in_features=6144, out_features=2048, bias=False)
[36m(EBFTPolicyModelActor pid=313711)[0m             (act_fn): SiLUActivation()
[36m(EBFTPolicyModelActor pid=313711)[0m           )
[36m(EBFTPolicyModelActor pid=313711)[0m           (input_layernorm): Qwen3_5RMSNorm((2048,), eps=1e-06)
[36m(EBFTPolicyModelActor pid=313711)[0m           (post_attention_layernorm): Qwen3_5RMSNorm((2048,), eps=1e-06)
[36m(EBFTPolicyModelActor pid=313711)[0m         )
[36m(EBFTPolicyModelActor pid=313711)[0m         (15): Qwen3_5DecoderLayer(
[36m(EBFTPolicyModelActor pid=313711)[0m           (self_attn): Qwen3_5Attention(
[36m(EBFTPolicyModelActor pid=313711)[0m             (q_proj): Linear(in_features=2048, out_features=4096, bias=False)
[36m(EBFTPolicyModelActor pid=313711)[0m             (k_proj): Linear(in_features=2048, out_features=512, bias=False)
[36m(EBFTPolicyModelActor pid=313711)[0m             (v_proj): Linear(in_features=2048, out_features=512, bias=False)
[36m(EBFTPolicyModelActor pid=313711)[0m             (o_proj): Linear(in_features=2048, out_features=2048, bias=False)
[36m(EBFTPolicyModelActor pid=313711)[0m             (q_norm): Qwen3_5RMSNorm((256,), eps=1e-06)
[36m(EBFTPolicyModelActor pid=313711)[0m             (k_norm): Qwen3_5RMSNorm((256,), eps=1e-06)
[36m(EBFTPolicyModelActor pid=313711)[0m           )
[36m(EBFTPolicyModelActor pid=313711)[0m           (mlp): Qwen3_5MLP(
[36m(EBFTPolicyModelActor pid=313711)[0m             (gate_proj): Linear(in_features=2048, out_features=6144, bias=False)
[36m(EBFTPolicyModelActor pid=313711)[0m             (up_proj): Linear(in_features=2048, out_features=6144, bias=False)
[36m(EBFTPolicyModelActor pid=313711)[0m             (down_proj): Linear(in_features=6144, out_features=2048, bias=False)
[36m(EBFTPolicyModelActor pid=313711)[0m             (act_fn): SiLUActivation()
[36m(EBFTPolicyModelActor pid=313711)[0m           )
[36m(EBFTPolicyModelActor pid=313711)[0m           (input_layernorm): Qwen3_5RMSNorm((2048,), eps=1e-06)
[36m(EBFTPolicyModelActor pid=313711)[0m           (post_attention_layernorm): Qwen3_5RMSNorm((2048,), eps=1e-06)
[36m(EBFTPolicyModelActor pid=313711)[0m         )
[36m(EBFTPolicyModelActor pid=313711)[0m         (16-18): 3 x Qwen3_5DecoderLayer(
[36m(EBFTPolicyModelActor pid=313711)[0m           (linear_attn): Qwen3_5GatedDeltaNet(
[36m(EBFTPolicyModelActor pid=313711)[0m             (act): SiLUActivation()
[36m(EBFTPolicyModelActor pid=313711)[0m             (conv1d): Conv1d(6144, 6144, kernel_size=(4,), stride=(1,), padding=(3,), groups=6144, bias=False)
[36m(EBFTPolicyModelActor pid=313711)[0m             (norm): Qwen3_5RMSNormGated()
[36m(EBFTPolicyModelActor pid=313711)[0m             (out_proj): Linear(in_features=2048, out_features=2048, bias=False)
[36m(EBFTPolicyModelActor pid=313711)[0m             (in_proj_qkv): Linear(in_features=2048, out_features=6144, bias=False)
[36m(EBFTPolicyModelActor pid=313711)[0m             (in_proj_z): Linear(in_features=2048, out_features=2048, bias=False)
[36m(EBFTPolicyModelActor pid=313711)[0m             (in_proj_b): Linear(in_features=2048, out_features=16, bias=False)
[36m(EBFTPolicyModelActor pid=313711)[0m             (in_proj_a): Linear(in_features=2048, out_features=16, bias=False)
[36m(EBFTPolicyModelActor pid=313711)[0m           )
[36m(EBFTPolicyModelActor pid=313711)[0m           (mlp): Qwen3_5MLP(
[36m(EBFTPolicyModelActor pid=313711)[0m             (gate_proj): Linear(in_features=2048, out_features=6144, bias=False)
[36m(EBFTPolicyModelActor pid=313711)[0m             (up_proj): Linear(in_features=2048, out_features=6144, bias=False)
[36m(EBFTPolicyModelActor pid=313711)[0m             (down_proj): Linear(in_features=6144, out_features=2048, bias=False)
[36m(EBFTPolicyModelActor pid=313711)[0m             (act_fn): SiLUActivation()
[36m(EBFTPolicyModelActor pid=313711)[0m           )
[36m(EBFTPolicyModelActor pid=313711)[0m           (input_layernorm): Qwen3_5RMSNorm((2048,), eps=1e-06)
[36m(EBFTPolicyModelActor pid=313711)[0m           (post_attention_layernorm): Qwen3_5RMSNorm((2048,), eps=1e-06)
…
dapter_down_drift_rel_l2=0, feature_adapter_ema_gap_abs_mean=0, feature_adapter_ema_gap_rel_l2=0, critic_grad_norm=0]
[36m(EBFTCriticModelActor pid=313712)[0m forward:   0%|          | 0/1 [00:00<?, ?it/s]
[36m(EBFTCriticModelActor pid=313712)[0m forward: 100%|██████████| 1/1 [00:00<00:00,  4.91it/s]forward: 100%|██████████| 1/1 [00:00<00:00,  4.91it/s]
[36m(EBFTCriticModelActor pid=313712)[0m forward:   0%|          | 0/1 [00:00<?, ?it/s]
[36m(EBFTPolicyModelActor pid=313711)[0m           (self_attn): Qwen3_5Attention(
[36m(EBFTPolicyModelActor pid=313711)[0m             (q_proj): Linear(in_features=2048, out_features=4096, bias=False)
[36m(EBFTPolicyModelActor pid=313711)[0m             (k_proj): Linear(in_features=2048, out_features=512, bias=False)
[36m(EBFTPolicyModelActor pid=313711)[0m             (v_proj): Linear(in_features=2048, out_features=512, bias=False)
[36m(EBFTPolicyModelActor pid=313711)[0m             (o_proj): Linear(in_features=2048, out_features=2048, bias=False)
[36m(EBFTPolicyModelActor pid=313711)[0m             (q_norm): Qwen3_5RMSNorm((256,), eps=1e-06)
[36m(EBFTPolicyModelActor pid=313711)[0m             (k_norm): Qwen3_5RMSNorm((256,), eps=1e-06)
[36m(EBFTPolicyModelActor pid=313711)[0m           )
[36m(EBFTPolicyModelActor pid=313711)[0m           (mlp): Qwen3_5MLP(
[36m(EBFTPolicyModelActor pid=313711)[0m             (gate_proj): Linear(in_features=2048, out_features=6144, bias=False)
[36m(EBFTPolicyModelActor pid=313711)[0m             (up_proj): Linear(in_features=2048, out_features=6144, bias=False)
[36m(EBFTPolicyModelActor pid=313711)[0m             (down_proj): Linear(in_features=6144, out_features=2048, bias=False)
[36m(EBFTPolicyModelActor pid=313711)[0m             (act_fn): SiLUActivation()
[36m(EBFTPolicyModelActor pid=313711)[0m           )
[36m(EBFTPolicyModelActor pid=313711)[0m           (input_layernorm): Qwen3_5RMSNorm((2048,), eps=1e-06)
[36m(EBFTPolicyModelActor pid=313711)[0m           (post_attention_layernorm): Qwen3_5RMSNorm((2048,), eps=1e-06)
[36m(EBFTPolicyModelActor pid=313711)[0m         )
[36m(EBFTPolicyModelActor pid=313711)[0m         (20-22): 3 x Qwen3_5DecoderLayer(
[36m(EBFTPolicyModelActor pid=313711)[0m           (linear_attn): Qwen3_5GatedDeltaNet(
[36m(EBFTPolicyModelActor pid=313711)[0m             (act): SiLUActivation()
[36m(EBFTPolicyModelActor pid=313711)[0m             (conv1d): Conv1d(6144, 6144, kernel_size=(4,), stride=(1,), padding=(3,), groups=6144, bias=False)
[36m(EBFTPolicyModelActor pid=313711)[0m             (norm): Qwen3_5RMSNormGated()
[36m(EBFTPolicyModelActor pid=313711)[0m             (out_proj): Linear(in_features=2048, out_features=2048, bias=False)
[36m(EBFTPolicyModelActor pid=313711)[0m             (in_proj_qkv): Linear(in_features=2048, out_features=6144, bias=False)
[36m(EBFTPolicyModelActor pid=313711)[0m             (in_proj_z): Linear(in_features=2048, out_features=2048, bias=False)
[36m(EBFTPolicyModelActor pid=313711)[0m             (in_proj_b): Linear(in_features=2048, out_features=16, bias=False)
[36m(EBFTPolicyModelActor pid=313711)[0m             (in_proj_a): Linear(in_features=2048, out_features=16, bias=False)
[36m(EBFTPolicyModelActor pid=313711)[0m           )
[36m(EBFTPolicyModelActor pid=313711)[0m           (mlp): Qwen3_5MLP(
[36m(EBFTPolicyModelActor pid=313711)[0m             (gate_proj): Linear(in_features=2048, out_features=6144, bias=False)
[36m(EBFTPolicyModelActor pid=313711)[0m             (up_proj): Linear(in_features=2048, out_features=6144, bias=False)
[36m(EBFTPolicyModelActor pid=313711)[0m             (down_proj): Linear(in_features=6144, out_features=2048, bias=False)
[36m(EBFTPolicyModelActor pid=313711)[0m             (act_fn): SiLUActivation()
[36m(EBFTPolicyModelActor pid=313711)[0m           )
[36m(EBFTPolicyModelActor pid=313711)[0m           (input_layernorm): Qwen3_5RMSNorm((2048,), eps=1e-06)
[36m(EBFTPolicyModelActor pid=313711)[0m           (post_attention_layernorm): Qwen3_5RMSNorm((2048,), eps=1e-06)
[36m(EBFTPolicyModelActor pid=313711)[0m         )
[36m(EBFTPolicyModelActor pid=313711)[0m         (23): Qwen3_5DecoderLayer(
[36m(EBFTPolicyModelActor pid=313711)[0m           (self_attn): Qwen3_5Attention(
[36m(EBFTPolicyModelActor pid=313711)[0m             (q_proj): Linear(in_features=2048, out_features=4096, bias=False)
[36m(EBFTPolicyModelActor pid=313711)[0m             (k_proj): Linear(in_features=2048, out_features=512, bias=False)
[36m(EBFTPolicyModelActor pid=313711)[0m             (v_proj): Linear(in_features=2048, out_features=512, bias=False)
[36m(EBFTPolicyModelActor pid=313711)[0m             (o_proj): Linear(in_features=2048, out_features=2048, bias=False)
[36m(EBFTPolicyModelActor pid=313711)[0m             (q_norm): Qwen3_5RMSNorm((256,), eps=1e-06)
[36m(EBFTPolicyModelActor pid=313711)[0m             (k_norm): Qwen3_5RMSNorm((256,), eps=1e-06)
[36m(EBFTPolicyModelActor pid=313711)[0m           )
[36m(EBFTPolicyModelActor pid=313711)[0m           (mlp): Qwen3_5MLP(
[36m(EBFTPolicyModelActor pid=313711)[0m             (gate_proj): Linear(in_features=2048, out_features=6144, bias=False)
[36m(EBFTPolicyModelActor pid=313711)[0m             (up_proj): Linear(in_features=2048, out_features=6144, bias=False)
[36m(EBFTPolicyModelActor pid=313711)[0m             (down_proj): Linear(in_features=6144, out_features=2048, bias=False)
[36m(EBFTPolicyModelActor pid=313711)[0m             (act_fn): SiLUActivation()
[36m(EBFTPolicyModelActor pid=313711)[0m           )
[36m(EBFTPolicyModelActor pid=313711)[0m           (input_layernorm): Qwen3_5RMSNorm((2048,), eps=1e-06)
[36m(EBFTPolicyModelActor pid=313711)[0m           (post_attention_layernorm): Qwen3_5RMSNorm((2048,), eps=1e-06)
[36m(EBFTPolicyModelActor pid=313711)[0m         )
[36m(EBFTPolicyModelActor pid=313711)[0m       )
[36m(EBFTPolicyModelActor pid=313711)[0m       (norm): Qwen3_5RMSNorm((2048,), eps=1e-06)
[36m(EBFTPolicyModelActor pid=313711)[0m       (rotary_emb): Qwen3_5TextRotaryEmbedding()
[36m(EBFTPolicyModelActor pid=313711)[0m     )
[36m(EBFTPolicyModelActor pid=313711)[0m     (lm_head): Linear(in_features=2048, out_features=248320, bias=False)
[36m(EBFTPolicyModelActor pid=313711)[0m   )
[36m(EBFTPolicyModelActor pid=313711)[0m )
[36m(EBFTPolicyModelActor pid=313711)[0m Installed CUDA version 12.8 does not match the version torch was compiled with 12.4 but since the APIs are compatible, accepting this combination
[36m(EBFTCriticModelActor pid=313712)[0m NCCL version 2.21.5+cuda12.4
…
