…
[36m(EBFTPolicyModelActor pid=288210)[0m 2026-03-24 20:58:06 WARNING  The fast path is not available because one of the required library is not installed. Falling back to torch implementation. To install follow https://github.com/fla-org/flash-linear-attention#installation and https://github.com/Dao-AILab/causal-conv1d
[36m(EBFTPolicyModelActor pid=288210)[0m Loading weights:   0%|          | 0/320 [00:00<?, ?it/s]Loading weights: 100%|██████████| 320/320 [00:00<00:00, 12213.94it/s]
[36m(EBFTPolicyModelActor pid=288210)[0m Actor(
[36m(EBFTPolicyModelActor pid=288210)[0m   (model): Qwen3_5ForCausalLM(
[36m(EBFTPolicyModelActor pid=288210)[0m     (model): Qwen3_5TextModel(
[36m(EBFTPolicyModelActor pid=288210)[0m       (embed_tokens): Embedding(248320, 2048)
[36m(EBFTPolicyModelActor pid=288210)[0m       (layers): ModuleList(
[36m(EBFTPolicyModelActor pid=288210)[0m         (0-2): 3 x Qwen3_5DecoderLayer(
[36m(EBFTPolicyModelActor pid=288210)[0m           (linear_attn): Qwen3_5GatedDeltaNet(
[36m(EBFTPolicyModelActor pid=288210)[0m             (act): SiLUActivation()
[36m(EBFTPolicyModelActor pid=288210)[0m             (conv1d): Conv1d(6144, 6144, kernel_size=(4,), stride=(1,), padding=(3,), groups=6144, bias=False)
[36m(EBFTPolicyModelActor pid=288210)[0m             (norm): Qwen3_5RMSNormGated()
[36m(EBFTPolicyModelActor pid=288210)[0m             (out_proj): Linear(in_features=2048, out_features=2048, bias=False)
[36m(EBFTPolicyModelActor pid=288210)[0m             (in_proj_qkv): Linear(in_features=2048, out_features=6144, bias=False)
[36m(EBFTPolicyModelActor pid=288210)[0m             (in_proj_z): Linear(in_features=2048, out_features=2048, bias=False)
[36m(EBFTPolicyModelActor pid=288210)[0m             (in_proj_b): Linear(in_features=2048, out_features=16, bias=False)
[36m(EBFTPolicyModelActor pid=288210)[0m             (in_proj_a): Linear(in_features=2048, out_features=16, bias=False)
[36m(EBFTPolicyModelActor pid=288210)[0m           )
[36m(EBFTPolicyModelActor pid=288210)[0m           (mlp): Qwen3_5MLP(
[36m(EBFTPolicyModelActor pid=288210)[0m             (gate_proj): Linear(in_features=2048, out_features=6144, bias=False)
[36m(EBFTPolicyModelActor pid=288210)[0m             (up_proj): Linear(in_features=2048, out_features=6144, bias=False)
[36m(EBFTPolicyModelActor pid=288210)[0m             (down_proj): Linear(in_features=6144, out_features=2048, bias=False)
[36m(EBFTPolicyModelActor pid=288210)[0m             (act_fn): SiLUActivation()
[36m(EBFTPolicyModelActor pid=288210)[0m           )
[36m(EBFTPolicyModelActor pid=288210)[0m           (input_layernorm): Qwen3_5RMSNorm((2048,), eps=1e-06)
[36m(EBFTPolicyModelActor pid=288210)[0m           (post_attention_layernorm): Qwen3_5RMSNorm((2048,), eps=1e-06)
[36m(EBFTPolicyModelActor pid=288210)[0m         )
[36m(EBFTPolicyModelActor pid=288210)[0m         (3): Qwen3_5DecoderLayer(
[36m(EBFTPolicyModelActor pid=288210)[0m           (self_attn): Qwen3_5Attention(
[36m(EBFTPolicyModelActor pid=288210)[0m             (q_proj): Linear(in_features=2048, out_features=4096, bias=False)
[36m(EBFTPolicyModelActor pid=288210)[0m             (k_proj): Linear(in_features=2048, out_features=512, bias=False)
[36m(EBFTPolicyModelActor pid=288210)[0m             (v_proj): Linear(in_features=2048, out_features=512, bias=False)
[36m(EBFTPolicyModelActor pid=288210)[0m             (o_proj): Linear(in_features=2048, out_features=2048, bias=False)
[36m(EBFTPolicyModelActor pid=288210)[0m             (q_norm): Qwen3_5RMSNorm((256,), eps=1e-06)
[36m(EBFTPolicyModelActor pid=288210)[0m             (k_norm): Qwen3_5RMSNorm((256,), eps=1e-06)
[36m(EBFTPolicyModelActor pid=288210)[0m           )
[36m(EBFTPolicyModelActor pid=288210)[0m           (mlp): Qwen3_5MLP(
[36m(EBFTPolicyModelActor pid=288210)[0m             (gate_proj): Linear(in_features=2048, out_features=6144, bias=False)
[36m(EBFTPolicyModelActor pid=288210)[0m             (up_proj): Linear(in_features=2048, out_features=6144, bias=False)
[36m(EBFTPolicyModelActor pid=288210)[0m             (down_proj): Linear(in_features=6144, out_features=2048, bias=False)
[36m(EBFTPolicyModelActor pid=288210)[0m             (act_fn): SiLUActivation()
[36m(EBFTPolicyModelActor pid=288210)[0m           )
[36m(EBFTPolicyModelActor pid=288210)[0m           (input_layernorm): Qwen3_5RMSNorm((2048,), eps=1e-06)
[36m(EBFTPolicyModelActor pid=288210)[0m           (post_attention_layernorm): Qwen3_5RMSNorm((2048,), eps=1e-06)
[36m(EBFTPolicyModelActor pid=288210)[0m         )
[36m(EBFTPolicyModelActor pid=288210)[0m         (4-6): 3 x Qwen3_5DecoderLayer(
[36m(EBFTPolicyModelActor pid=288210)[0m           (linear_attn): Qwen3_5GatedDeltaNet(
[36m(EBFTPolicyModelActor pid=288210)[0m             (act): SiLUActivation()
[36m(EBFTPolicyModelActor pid=288210)[0m             (conv1d): Conv1d(6144, 6144, kernel_size=(4,), stride=(1,), padding=(3,), groups=6144, bias=False)
[36m(EBFTPolicyModelActor pid=288210)[0m             (norm): Qwen3_5RMSNormGated()
[36m(EBFTPolicyModelActor pid=288210)[0m             (out_proj): Linear(in_features=2048, out_features=2048, bias=False)
[36m(EBFTPolicyModelActor pid=288210)[0m             (in_proj_qkv): Linear(in_features=2048, out_features=6144, bias=False)
[36m(EBFTPolicyModelActor pid=288210)[0m             (in_proj_z): Linear(in_features=2048, out_features=2048, bias=False)
[36m(EBFTPolicyModelActor pid=288210)[0m             (in_proj_b): Linear(in_features=2048, out_features=16, bias=False)
[36m(EBFTPolicyModelActor pid=288210)[0m             (in_proj_a): Linear(in_features=2048, out_features=16, bias=False)
[36m(EBFTPolicyModelActor pid=288210)[0m           )
[36m(EBFTPolicyModelActor pid=288210)[0m           (mlp): Qwen3_5MLP(
[36m(EBFTPolicyModelActor pid=288210)[0m             (gate_proj): Linear(in_features=2048, out_features=6144, bias=False)
[36m(EBFTPolicyModelActor pid=288210)[0m             (up_proj): Linear(in_features=2048, out_features=6144, bias=False)
[36m(EBFTPolicyModelActor pid=288210)[0m             (down_proj): Linear(in_features=6144, out_features=2048, bias=False)
[36m(EBFTPolicyModelActor pid=288210)[0m             (act_fn): SiLUActivation()
[36m(EBFTPolicyModelActor pid=288210)[0m           )
[36m(EBFTPolicyModelActor pid=288210)[0m           (input_layernorm): Qwen3_5RMSNorm((2048,), eps=1e-06)
[36m(EBFTPolicyModelActor pid=288210)[0m           (post_attention_layernorm): Qwen3_5RMSNorm((2048,), eps=1e-06)
[36m(EBFTPolicyModelActor pid=288210)[0m         )
[36m(EBFTPolicyModelActor pid=288210)[0m         (7): Qwen3_5DecoderLayer(
[36m(EBFTPolicyModelActor pid=288210)[0m           (self_attn): Qwen3_5Attention(
[36m(EBFTPolicyModelActor pid=288210)[0m             (q_proj): Linear(in_features=2048, out_features=4096, bias=False)
[36m(EBFTPolicyModelActor pid=288210)[0m             (k_proj): Linear(in_features=2048, out_features=512, bias=False)
[36m(EBFTPolicyModelActor pid=288210)[0m             (v_proj): Linear(in_features=2048, out_features=512, bias=False)
[36m(EBFTPolicyModelActor pid=288210)[0m             (o_proj): Linear(in_features=2048, out_features=2048, bias=False)
[36m(EBFTPolicyModelActor pid=288210)[0m             (q_norm): Qwen3_5RMSNorm((256,), eps=1e-06)
[36m(EBFTPolicyModelActor pid=288210)[0m             (k_norm): Qwen3_5RMSNorm((256,), eps=1e-06)
[36m(EBFTPolicyModelActor pid=288210)[0m           )
[36m(EBFTPolicyModelActor pid=288210)[0m           (mlp): Qwen3_5MLP(
[36m(EBFTPolicyModelActor pid=288210)[0m             (gate_proj): Linear(in_features=2048, out_features=6144, bias=False)
[36m(EBFTPolicyModelActor pid=288210)[0m             (up_proj): Linear(in_features=2048, out_features=6144, bias=False)
[36m(EBFTPolicyModelActor pid=288210)[0m             (down_proj): Linear(in_features=6144, out_features=2048, bias=False)
[36m(EBFTPolicyModelActor pid=288210)[0m             (act_fn): SiLUActivation()
[36m(EBFTPolicyModelActor pid=288210)[0m           )
[36m(EBFTPolicyModelActor pid=288210)[0m           (input_layernorm): Qwen3_5RMSNorm((2048,), eps=1e-06)
[36m(EBFTPolicyModelActor pid=288210)[0m           (post_attention_layernorm): Qwen3_5RMSNorm((2048,), eps=1e-06)
[36m(EBFTPolicyModelActor pid=288210)[0m         )
[36m(EBFTPolicyModelActor pid=288210)[0m         (8-10): 3 x Qwen3_5DecoderLayer(
[36m(EBFTPolicyModelActor pid=288210)[0m           (linear_attn): Qwen3_5GatedDeltaNet(
[36m(EBFTPolicyModelActor pid=288210)[0m             (act): SiLUActivation()
[36m(EBFTPolicyModelActor pid=288210)[0m             (conv1d): Conv1d(6144, 6144, kernel_size=(4,), stride=(1,), padding=(3,), groups=6144, bias=False)
[36m(EBFTPolicyModelActor pid=288210)[0m             (norm): Qwen3_5RMSNormGated()
[36m(EBFTPolicyModelActor pid=288210)[0m             (out_proj): Linear(in_features=2048, out_features=2048, bias=False)
[36m(EBFTPolicyModelActor pid=288210)[0m             (in_proj_qkv): Linear(in_features=2048, out_features=6144, bias=False)
[36m(EBFTPolicyModelActor pid=288210)[0m             (in_proj_z): Linear(in_features=2048, out_features=2048, bias=False)
[36m(EBFTPolicyModelActor pid=288210)[0m             (in_proj_b): Linear(in_features=2048, out_features=16, bias=False)
[36m(EBFTPolicyModelActor pid=288210)[0m             (in_proj_a): Linear(in_features=2048, out_features=16, bias=False)
[36m(EBFTPolicyModelActor pid=288210)[0m           )
[36m(EBFTPolicyModelActor pid=288210)[0m           (mlp): Qwen3_5MLP(
[36m(EBFTPolicyModelActor pid=288210)[0m             (gate_proj): Linear(in_features=2048, out_features=6144, bias=False)
[36m(EBFTPolicyModelActor pid=288210)[0m             (up_proj): Linear(in_features=2048, out_features=6144, bias=False)
[36m(EBFTPolicyModelActor pid=288210)[0m             (down_proj): Linear(in_features=6144, out_features=2048, bias=False)
[36m(EBFTPolicyModelActor pid=288210)[0m             (act_fn): SiLUActivation()
[36m(EBFTPolicyModelActor pid=288210)[0m           )
[36m(EBFTPolicyModelActor pid=288210)[0m           (input_layernorm): Qwen3_5RMSNorm((2048,), eps=1e-06)
[36m(EBFTPolicyModelActor pid=288210)[0m           (post_attention_layernorm): Qwen3_5RMSNorm((2048,), eps=1e-06)
[36m(EBFTPolicyModelActor pid=288210)[0m         )
[36m(EBFTPolicyModelActor pid=288210)[0m         (11): Qwen3_5DecoderLayer(
[36m(EBFTPolicyModelActor pid=288210)[0m           (self_attn): Qwen3_5Attention(
[36m(EBFTPolicyModelActor pid=288210)[0m             (q_proj): Linear(in_features=2048, out_features=4096, bias=False)
[36m(EBFTPolicyModelActor pid=288210)[0m             (k_proj): Linear(in_features=2048, out_features=512, bias=False)
[36m(EBFTPolicyModelActor pid=288210)[0m             (v_proj): Linear(in_features=2048, out_features=512, bias=False)
[36m(EBFTPolicyModelActor pid=288210)[0m             (o_proj): Linear(in_features=2048, out_features=2048, bias=False)
[36m(EBFTPolicyModelActor pid=288210)[0m             (q_norm): Qwen3_5RMSNorm((256,), eps=1e-06)
[36m(EBFTPolicyModelActor pid=288210)[0m             (k_norm): Qwen3_5RMSNorm((256,), eps=1e-06)
[36m(EBFTPolicyModelActor pid=288210)[0m           )
[36m(EBFTPolicyModelActor pid=288210)[0m           (mlp): Qwen3_5MLP(
[36m(EBFTPolicyModelActor pid=288210)[0m             (gate_proj): Linear(in_features=2048, out_features=6144, bias=False)
[36m(EBFTPolicyModelActor pid=288210)[0m             (up_proj): Linear(in_features=2048, out_features=6144, bias=False)
[36m(EBFTPolicyModelActor pid=288210)[0m             (down_proj): Linear(in_features=6144, out_features=2048, bias=False)
[36m(EBFTPolicyModelActor pid=288210)[0m             (act_fn): SiLUActivation()
[36m(EBFTPolicyModelActor pid=288210)[0m           )
[36m(EBFTPolicyModelActor pid=288210)[0m           (input_layernorm): Qwen3_5RMSNorm((2048,), eps=1e-06)
[36m(EBFTPolicyModelActor pid=288210)[0m           (post_attention_layernorm): Qwen3_5RMSNorm((2048,), eps=1e-06)
[36m(EBFTPolicyModelActor pid=288210)[0m         )
[36m(EBFTPolicyModelActor pid=288210)[0m         (12-14): 3 x Qwen3_5DecoderLayer(
[36m(EBFTPolicyModelActor pid=288210)[0m           (linear_attn): Qwen3_5GatedDeltaNet(
[36m(EBFTPolicyModelActor pid=288210)[0m             (act): SiLUActivation()
[36m(EBFTPolicyModelActor pid=288210)[0m             (conv1d): Conv1d(6144, 6144, kernel_size=(4,), stride=(1,), padding=(3,), groups=6144, bias=False)
[36m(EBFTPolicyModelActor pid=288210)[0m             (norm): Qwen3_5RMSNormGated()
[36m(EBFTPolicyModelActor pid=288210)[0m             (out_proj): Linear(in_features=2048, out_features=2048, bias=False)
[36m(EBFTPolicyModelActor pid=288210)[0m             (in_proj_qkv): Linear(in_features=2048, out_features=6144, bias=False)
[36m(EBFTPolicyModelActor pid=288210)[0m             (in_proj_z): Linear(in_features=2048, out_features=2048, bias=False)
[36m(EBFTPolicyModelActor pid=288210)[0m             (in_proj_b): Linear(in_features=2048, out_features=16, bias=False)
[36m(EBFTPolicyModelActor pid=288210)[0m             (in_proj_a): Linear(in_features=2048, out_features=16, bias=False)
[36m(EBFTPolicyModelActor pid=288210)[0m           )
[36m(EBFTPolicyModelActor pid=288210)[0m           (mlp): Qwen3_5MLP(
[36m(EBFTPolicyModelActor pid=288210)[0m             (gate_proj): Linear(in_features=2048, out_features=6144, bias=False)
[36m(EBFTPolicyModelActor pid=288210)[0m             (up_proj): Linear(in_features=2048, out_features=6144, bias=False)
[36m(EBFTPolicyModelActor pid=288210)[0m             (down_proj): Linear(in_features=6144, out_features=2048, bias=False)
[36m(EBFTPolicyModelActor pid=288210)[0m             (act_fn): SiLUActivation()
[36m(EBFTPolicyModelActor pid=288210)[0m           )
[36m(EBFTPolicyModelActor pid=288210)[0m           (input_layernorm): Qwen3_5RMSNorm((2048,), eps=1e-06)
[36m(EBFTPolicyModelActor pid=288210)[0m           (post_attention_layernorm): Qwen3_5RMSNorm((2048,), eps=1e-06)
[36m(EBFTPolicyModelActor pid=288210)[0m         )
[36m(EBFTPolicyModelActor pid=288210)[0m         (15): Qwen3_5DecoderLayer(
[36m(EBFTPolicyModelActor pid=288210)[0m           (self_attn): Qwen3_5Attention(
[36m(EBFTPolicyModelActor pid=288210)[0m             (q_proj): Linear(in_features=2048, out_features=4096, bias=False)
[36m(EBFTPolicyModelActor pid=288210)[0m             (k_proj): Linear(in_features=2048, out_features=512, bias=False)
[36m(EBFTPolicyModelActor pid=288210)[0m             (v_proj): Linear(in_features=2048, out_features=512, bias=False)
[36m(EBFTPolicyModelActor pid=288210)[0m             (o_proj): Linear(in_features=2048, out_features=2048, bias=False)
[36m(EBFTPolicyModelActor pid=288210)[0m             (q_norm): Qwen3_5RMSNorm((256,), eps=1e-06)
[36m(EBFTPolicyModelActor pid=288210)[0m             (k_norm): Qwen3_5RMSNorm((256,), eps=1e-06)
[36m(EBFTPolicyModelActor pid=288210)[0m           )
[36m(EBFTPolicyModelActor pid=288210)[0m           (mlp): Qwen3_5MLP(
[36m(EBFTPolicyModelActor pid=288210)[0m             (gate_proj): Linear(in_features=2048, out_features=6144, bias=False)
[36m(EBFTPolicyModelActor pid=288210)[0m             (up_proj): Linear(in_features=2048, out_features=6144, bias=False)
[36m(EBFTPolicyModelActor pid=288210)[0m             (down_proj): Linear(in_features=6144, out_features=2048, bias=False)
[36m(EBFTPolicyModelActor pid=288210)[0m             (act_fn): SiLUActivation()
[36m(EBFTPolicyModelActor pid=288210)[0m           )
[36m(EBFTPolicyModelActor pid=288210)[0m           (input_layernorm): Qwen3_5RMSNorm((2048,), eps=1e-06)
[36m(EBFTPolicyModelActor pid=288210)[0m           (post_attention_layernorm): Qwen3_5RMSNorm((2048,), eps=1e-06)
[36m(EBFTPolicyModelActor pid=288210)[0m         )
[36m(EBFTPolicyModelActor pid=288210)[0m         (16-18): 3 x Qwen3_5DecoderLayer(
[36m(EBFTPolicyModelActor pid=288210)[0m           (linear_attn): Qwen3_5GatedDeltaNet(
[36m(EBFTPolicyModelActor pid=288210)[0m             (act): SiLUActivation()
[36m(EBFTPolicyModelActor pid=288210)[0m             (conv1d): Conv1d(6144, 6144, kernel_size=(4,), stride=(1,), padding=(3,), groups=6144, bias=False)
[36m(EBFTPolicyModelActor pid=288210)[0m             (norm): Qwen3_5RMSNormGated()
[36m(EBFTPolicyModelActor pid=288210)[0m             (out_proj): Linear(in_features=2048, out_features=2048, bias=False)
[36m(EBFTPolicyModelActor pid=288210)[0m             (in_proj_qkv): Linear(in_features=2048, out_features=6144, bias=False)
[36m(EBFTPolicyModelActor pid=288210)[0m             (in_proj_z): Linear(in_features=2048, out_features=2048, bias=False)
[36m(EBFTPolicyModelActor pid=288210)[0m             (in_proj_b): Linear(in_features=2048, out_features=16, bias=False)
[36m(EBFTPolicyModelActor pid=288210)[0m             (in_proj_a): Linear(in_features=2048, out_features=16, bias=False)
[36m(EBFTPolicyModelActor pid=288210)[0m           )
[36m(EBFTPolicyModelActor pid=288210)[0m           (mlp): Qwen3_5MLP(
[36m(EBFTPolicyModelActor pid=288210)[0m             (gate_proj): Linear(in_features=2048, out_features=6144, bias=False)
[36m(EBFTPolicyModelActor pid=288210)[0m             (up_proj): Linear(in_features=2048, out_features=6144, bias=False)
[36m(EBFTPolicyModelActor pid=288210)[0m             (down_proj): Linear(in_features=6144, out_features=2048, bias=False)
[36m(EBFTPolicyModelActor pid=288210)[0m             (act_fn): SiLUActivation()
[36m(EBFTPolicyModelActor pid=288210)[0m           )
[36m(EBFTPolicyModelActor pid=288210)[0m           (input_layernorm): Qwen3_5RMSNorm((2048,), eps=1e-06)
[36m(EBFTPolicyModelActor pid=288210)[0m           (post_attention_layernorm): Qwen3_5RMSNorm((2048,), eps=1e-06)
[36m(EBFTPolicyModelActor pid=288210)[0m         )
[36m(EBFTPolicyModelActor pid=288210)[0m         (19): Qwen3_5DecoderLayer(
[36m(EBFTPolicyModelActor pid=288210)[0m           (self_attn): Qwen3_5Attention(
[36m(EBFTPolicyModelActor pid=288210)[0m             (q_proj): Linear(in_features=2048, out_features=4096, bias=False)
[36m(EBFTPolicyModelActor pid=288210)[0m             (k_proj): Linear(in_features=2048, out_features=512, bias=False)
[36m(EBFTPolicyModelActor pid=288210)[0m             (v_proj): Linear(in_features=2048, out_features=512, bias=False)
[36m(EBFTPolicyModelActor pid=288210)[0m             (o_proj): Linear(in_features=2048, out_features=2048, bias=False)
[36m(EBFTPolicyModelActor pid=288210)[0m             (q_norm): Qwen3_5RMSNorm((256,), eps=1e-06)
[36m(EBFTPolicyModelActor pid=288210)[0m             (k_norm): Qwen3_5RMSNorm((256,), eps=1e-06)
[36m(EBFTPolicyModelActor pid=288210)[0m           )
[36m(EBFTPolicyModelActor pid=288210)[0m           (mlp): Qwen3_5MLP(
[36m(EBFTPolicyModelActor pid=288210)[0m             (gate_proj): Linear(in_features=2048, out_features=6144, bias=False)
[36m(EBFTPolicyModelActor pid=288210)[0m             (up_proj): Linear(in_features=2048, out_features=6144, bias=False)
[36m(EBFTPolicyModelActor pid=288210)[0m             (down_proj): Linear(in_features=6144, out_features=2048, bias=False)
[36m(EBFTPolicyModelActor pid=288210)[0m             (act_fn): SiLUActivation()
[36m(EBFTPolicyModelActor pid=288210)[0m           )
[36m(EBFTPolicyModelActor pid=288210)[0m           (input_layernorm): Qwen3_5RMSNorm((2048,), eps=1e-06)
[36m(EBFTPolicyModelActor pid=288210)[0m           (post_attention_layernorm): Qwen3_5RMSNorm((2048,), eps=1e-06)
[36m(EBFTPolicyModelActor pid=288210)[0m         )
[36m(EBFTPolicyModelActor pid=288210)[0m         (20-22): 3 x Qwen3_5DecoderLayer(
[36m(EBFTPolicyModelActor pid=288210)[0m           (linear_attn): Qwen3_5GatedDeltaNet(
[36m(EBFTPolicyModelActor pid=288210)[0m             (act): SiLUActivation()
[36m(EBFTPolicyModelActor pid=288210)[0m             (conv1d): Conv1d(6144, 6144, kernel_size=(4,), stride=(1,), padding=(3,), groups=6144, bias=False)
[36m(EBFTPolicyModelActor pid=288210)[0m             (norm): Qwen3_5RMSNormGated()
[36m(EBFTPolicyModelActor pid=288210)[0m             (out_proj): Linear(in_features=2048, out_features=2048, bias=False)
[36m(EBFTPolicyModelActor pid=288210)[0m             (in_proj_qkv): Linear(in_features=2048, out_features=6144, bias=False)
[36m(EBFTPolicyModelActor pid=288210)[0m             (in_proj_z): Linear(in_features=2048, out_features=2048, bias=False)
[36m(EBFTPolicyModelActor pid=288210)[0m             (in_proj_b): Linear(in_features=2048, out_features=16, bias=False)
[36m(EBFTPolicyModelActor pid=288210)[0m             (in_proj_a): Linear(in_features=2048, out_features=16, bias=False)
[36m(EBFTPolicyModelActor pid=288210)[0m           )
[36m(EBFTPolicyModelActor pid=288210)[0m           (mlp): Qwen3_5MLP(
[36m(EBFTPolicyModelActor pid=288210)[0m             (gate_proj): Linear(in_features=2048, out_features=6144, bias=False)
[36m(EBFTPolicyModelActor pid=288210)[0m             (up_proj): Linear(in_features=2048, out_features=6144, bias=False)
[36m(EBFTPolicyModelActor pid=288210)[0m             (down_proj): Linear(in_features=6144, out_features=2048, bias=False)
[36m(EBFTPolicyModelActor pid=288210)[0m             (act_fn): SiLUActivation()
[36m(EBFTPolicyModelActor pid=288210)[0m           )
[36m(EBFTPolicyModelActor pid=288210)[0m           (input_layernorm): Qwen3_5RMSNorm((2048,), eps=1e-06)
[36m(EBFTPolicyModelActor pid=288210)[0m           (post_attention_layernorm): Qwen3_5RMSNorm((2048,), eps=1e-06)
[36m(EBFTPolicyModelActor pid=288210)[0m         )
[36m(EBFTPolicyModelActor pid=288210)[0m         (23): Qwen3_5DecoderLayer(
[36m(EBFTPolicyModelActor pid=288210)[0m           (self_attn): Qwen3_5Attention(
[36m(EBFTPolicyModelActor pid=288210)[0m             (q_proj): Linear(in_features=2048, out_features=4096, bias=False)
[36m(EBFTPolicyModelActor pid=288210)[0m             (k_proj): Linear(in_features=2048, out_features=512, bias=False)
[36m(EBFTPolicyModelActor pid=288210)[0m             (v_proj): Linear(in_features=2048, out_features=512, bias=False)
[36m(EBFTPolicyModelActor pid=288210)[0m             (o_proj): Linear(in_features=2048, out_features=2048, bias=False)
[36m(EBFTPolicyModelActor pid=288210)[0m             (q_norm): Qwen3_5RMSNorm((256,), eps=1e-06)
[36m(EBFTPolicyModelActor pid=288210)[0m             (k_norm): Qwen3_5RMSNorm((256,), eps=1e-06)
[36m(EBFTPolicyModelActor pid=288210)[0m           )
[36m(EBFTPolicyModelActor pid=288210)[0m           (mlp): Qwen3_5MLP(
[36m(EBFTPolicyModelActor pid=288210)[0m             (gate_proj): Linear(in_features=2048, out_features=6144, bias=False)
[36m(EBFTPolicyModelActor pid=288210)[0m             (up_proj): Linear(in_features=2048, out_features=6144, bias=False)
[36m(EBFTPolicyModelActor pid=288210)[0m             (down_proj): Linear(in_features=6144, out_features=2048, bias=False)
[36m(EBFTPolicyModelActor pid=288210)[0m             (act_fn): SiLUActivation()
[36m(EBFTPolicyModelActor pid=288210)[0m           )
[36m(EBFTPolicyModelActor pid=288210)[0m           (input_layernorm): Qwen3_5RMSNorm((2048,), eps=1e-06)
[36m(EBFTPolicyModelActor pid=288210)[0m           (post_attention_layernorm): Qwen3_5RMSNorm((2048,), eps=1e-06)
[36m(EBFTPolicyModelActor pid=288210)[0m         )
[36m(EBFTPolicyModelActor pid=288210)[0m       )
[36m(EBFTPolicyModelActor pid=288210)[0m       (norm): Qwen3_5RMSNorm((2048,), eps=1e-06)
[36m(EBFTPolicyModelActor pid=288210)[0m       (rotary_emb): Qwen3_5TextRotaryEmbedding()
[36m(EBFTPolicyModelActor pid=288210)[0m     )
[36m(EBFTPolicyModelActor pid=288210)[0m     (lm_head): Linear(in_features=2048, out_features=248320, bias=False)
[36m(EBFTPolicyModelActor pid=288210)[0m   )
[36m(EBFTPolicyModelActor pid=288210)[0m )
[36m(EBFTPolicyModelActor pid=288579)[0m Loading weights:   0%|          | 0/320 [00:00<?, ?it/s]
[36m(EBFTPolicyModelActor pid=288579)[0m Loading weights: 100%|██████████| 320/320 [00:00<00:00, 12128.95it/s]
[36m(EBFTPolicyModelActor pid=288582)[0m [W324 20:58:01.797441793 CUDAAllocatorConfig.h:28] Warning: expandable_segments not supported on this platform (function operator())[32m [repeated 3x across cluster][0m
…
